# YOLOv5 🚀 by Ultralytics, GPL-3.0 license

# Parameters
nc: 2 # number of classes
depth_multiple: 0.33  # model depth multiple
width_multiple: 0.50  # layer channel multiple

anchors:  # default
  - [10,13, 16,30, 33,23]  # P3/8
  - [30,61, 62,45, 59,119]  # P4/16
  - [116,90, 156,198, 373,326]  # P5/32

#anchors:   # gt_vms_turnout_后期(部署用的默认模型)
#  - [ 16,35, 18,35, 18,39 ]  # P3/8
#  - [ 20,36, 20,40, 22,39 ] # P4/16
#  - [ 22,41, 25,42, 63,98 ]  # P5/32

#anchors: # gt_vms_fall-20240122
#  - [ 6,11, 13,33, 24,61 ]  # P3/8
#  - [ 53,136, 109,205, 146,195 ] # P4/16
#  - [ 128,287, 256,146, 171,350 ]  # P5/32


#anchors: # gt_vms_dangerous_v1(web_data_syn)
#  - [ 36,65, 85,60, 61,108 ]  # P3/8
#  - [ 88,173, 156,126, 138,250 ]  # P4/16
#  - [ 226,396, 316,595, 460,771 ]  # P5/32

#anchors: # gt_vms_dangerous_v2(web_data_syn + hk_sht_syn) -20240116
#  - [ 22,42, 45,35, 38,69 ]  # P3/8
#  - [ 52,99, 87,60, 79,116 ]  # P4/16
#  - [ 119,221, 204,359, 292,526 ]  # P5/32

#anchors: # gt_vms_dangerous_v3(web_data_syn + hk_sht_syn + data_syn_web_aux) -20240121
#  - [ 25,45, 50,37, 40,73 ]  # P3/8
#  - [ 88,61, 56,102, 91,100 ]  # P4/16
#  - [ 101,197, 179,314, 280,498 ]  # P5/32

# YOLOv5 v6.0 backbone
backbone:
  # [from, number, module, args]
  [ [ -1, 1, Conv, [ 64, 6, 2, 2 ] ],  # 0-P1/2
    [ -1, 1, Conv, [ 128, 3, 2 ] ],  # 1-P2/4
    [ -1, 3, C3, [ 128 ] ],
    [ -1, 1, Conv, [ 256, 3, 2 ] ],  # 3-P3/8
    [ -1, 6, C3, [ 256 ] ],
    [ -1, 1, Conv, [ 512, 3, 2 ] ],  # 5-P4/16
    [ -1, 9, C3, [ 512 ] ],
    [ -1, 1, Conv, [ 1024, 3, 2 ] ],  # 7-P5/32
    [ -1, 3, C3, [ 1024 ] ],
    [ -1, 1, SPPF, [ 1024, 5 ] ],  # 9
  ]

# YOLOv5 v6.0 head
head:
  [ [ -1, 1, Conv, [ 512, 1, 1 ] ],
    [ -1, 1, nn.Upsample, [ None, 2, 'nearest' ] ],
    [ [ -1, 6 ], 1, Concat, [ 1 ] ],  # cat backbone P4
    [ -1, 3, C3, [ 512, False ] ],  # 13

    [ -1, 1, Conv, [ 256, 1, 1 ] ],
    [ -1, 1, nn.Upsample, [ None, 2, 'nearest' ] ],
    [ [ -1, 4 ], 1, Concat, [ 1 ] ],  # cat backbone P3
    [ -1, 3, C3, [ 256, False ] ],  # 17 (P3/8-small)

    [ -1, 1, Conv, [ 256, 3, 2 ] ],
    [ [ -1, 14 ], 1, Concat, [ 1 ] ],  # cat head P4
    [ -1, 3, C3, [ 512, False ] ],  # 20 (P4/16-medium)

    [ -1, 1, Conv, [ 512, 3, 2 ] ],
    [ [ -1, 10 ], 1, Concat, [ 1 ] ],  # cat head P5
    [ -1, 3, C3, [ 1024, False ] ],  # 23 (P5/32-large)

    [ [ 17, 20, 23 ], 1, Detect, [ nc, anchors ] ],  # Detect(P3, P4, P5)
  ]
